mgc_model.npz (npz, 459938 bytes, 6 tensors)

arr_0 f8 [2]
0.5 0.5
00000000: 0000 0000 0000 e03f 0000 0000 0000 e03f

arr_1 f8 [2, 51]
-3.380975212836758 -2.555790830864439 0.40252425050898955 0.10766079022836751 -0.05714328075234599 -0.19311951536139188 -0.027057142260411303 0.010008576853408497
-0.010319897308030977 -0.009244822318389443 0.016083151433035084 0.022678338410286186 0.0019195058211854375 -0.02565114549568519 0.0168828677737544 0.009098148623000964
0.0050866206402589275 0.0031410341883910797 0.04081842026818772 -0.02565048206129434 0.017736581083295004 0.024868851631276265 -0.02753690438707402 -0.014429171091855358
-0.010643758196660398 0.004956083836417708 0.03551407324831752 -0.003869360550378352 0.021133792783477774 0.017662338319862875 -0.0047762422717154 0.010160942666875778
0.0033789639336447115 0.01148038411724998 -0.0025883568209537624 0.0018005953234048414 -0.0017450878331761184 -0.010264388362617784 0.008708149348250052 -0.01590085901590931
0.021640444449129777 0.013775949010774292 0.0053232957246854284 0.0017597297580577132 0.019563576805999888 -0.0007451719428398843 0.006909608304954724 -0.00848794260769126
-0.002805176973446806 0.010329557344984412 0.005274879383451433 3.3809752128367596 2.55579083086441 -0.40252425050898966 -0.10766079022836587 0.05714328075234679
0.19311951536139546 0.02705714226041175 -0.010008576853408807 0.01031989730803043 0.009244822318390085 -0.016083151433034976 -0.02267833841028615 -0.0019195058211856101
0.02565114549568622 -0.016882867773754372 -0.00909814862300134 -0.005086620640259294 -0.003141034188390888 -0.04081842026818789 0.02565048206129452 -0.017736581083295237
-0.024868851631277184 0.02753690438707368 0.014429171091855514 0.010643758196660703 -0.004956083836417343 -0.035514073248317166 0.0038693605503783797 -0.021133792783478312
-0.017662338319862792 0.004776242271715423 -0.010160942666875838 -0.0033789639336450072 -0.011480384117250124 0.002588356820954113 -0.0018005953234048948 0.0017450878331757434
0.010264388362617853 -0.008708149348250134 0.01590085901590957 -0.02164044444912956 -0.013775949010774695 -0.00532329572468554 -0.0017597297580576132 -0.019563576805999943
0.000745171942839909 -0.006909608304954916 0.008487942607691335 0.0028051769734465885 -0.01032955734498439 -0.005274879383451262
00000000: 9dc3 7dbb 3c0c 0bc0 e1d5 8f76 4272 04c0
00000010: 061d f212 f5c2 d93f 91a4 1755 a88f bb3f
00000020: 21f2 0854 e241 adbf 7a28 59e9 23b8 c8bf
00000030: b6d8 8614 deb4 9bbf bd7f 1e72 607f 843f
00000040: 0c13 7d2b 9922 85bf 9256 1e0c f3ee 82bf
00000050: 049e af05 1a78 903f b8fe 3287 fd38 973f
00000060: f088 7eae fd72 5f3f 8d1e 093c 4b44 9abf
00000070: 6bca cd13 be49 913f 44ca 51d6 0ca2 823f
00000080: 2ecd c054 b5d5 743f 1c18 ace3 39bb 693f
00000090: d1a3 40e8 26e6 a43f b2cf 51b6 1e44 9abf
000000a0: 7e4c c8ce 8929 923f fc18 c861 3877 993f
000000b0: e22c 1a5f a232 9cbf 7650 958f 0a8d 8dbf
000000c0: b7b6 e30a 65cc 85bf bafb e59f d44c 743f
000000d0: 696d 4c8e e62e a23f 165c a620 a3b2 6fbf
000000e0: f2c4 61d3 18a4 953f 859c d175 1316 923f
000000f0: b038 adc5 4090 73bf 5d29 9ba3 42cf 843f
00000100: 5619 dc72 33ae 6b3f 9602 a212 0783 873f
00000110: 7e1a af7c 2d34 65bf 682c c081 3e80 5d3f
00000120: 0353 04cb 6d97 5cbf c1a7 a5e2 7e05 85bf
00000130: c87c 4605 94d5 813f fd79 ce95 5048 90bf
00000140: 323c b8a4 e928 963f 07f7 c793 9036 8c3f
00000150: 401c b650 e1cd 753f f695 ae70 d7d4 5c3f
00000160: cb57 4c6a 7908 943f 3625 ec8f f46a 48bf
00000170: 2ece 2adb 3f4d 7c3f 426a 485f 2062 81bf
00000180: aac6 88eb e1fa 66bf fcb6 d4b7 a927 853f
00000190: 2f88 13a7 1c9b 753f a1c3 7dbb 3c0c 0b40
000001a0: a0d5 8f76 4272 0440 081d f212 f5c2 d9bf
000001b0: 1ba4 1755 a88f bbbf 94f2 0854 e241 ad3f
000001c0: fb28 59e9 23b8 c83f 37d9 8614 deb4 9b3f
000001d0: 7080 1e72 607f 84bf d111 7d2b 9922 853f
000001e0: 0458 1e0c f3ee 823f e59d af05 1a78 90bf
000001f0: aefe 3287 fd38 97bf 0c8c 7eae fd72 5fbf
00000200: b61f 093c 4b44 9a3f 63ca cd13 be49 91bf
00000210: 1dcb 51d6 0ca2 82bf d5ce c054 b5d5 74bf
00000220: 6216 ace3 39bb 69bf e9a3 40e8 26e6 a4bf
00000230: e6cf 51b6 1e44 9a3f c14c c8ce 8929 92bf
00000240: 051a c861 3877 99bf 802c 1a5f a232 9c3f
00000250: d050 958f 0a8d 8d3f 67b7 e30a 65cc 853f
00000260: 16fa e59f d44c 74bf 366d 4c8e e62e a2bf
00000270: 565c a620 a3b2 6f3f 8dc5 61d3 18a4 95bf
00000280: 6d9c d175 1316 92bf ca38 adc5 4090 733f
00000290: 8029 9ba3 42cf 84bf 001c dc72 33ae 6bbf
000002a0: e902 a212 0783 87bf a61d af7c 2d34 653f
000002b0: 5e2d c081 3e80 5dbf 424c 04cb 6d97 5c3f
000002c0: e9a7 a5e2 7e05 853f f77c 4605 94d5 81bf
000002d0: 487a ce95 5048 903f f43b b8a4 e928 96bf
000002e0: eff7 c793 9036 8cbf c11c b650 e1cd 75bf
000002f0: 2994 ae70 d7d4 5cbf db57 4c6a 7908 94bf
00000300: 1a26 ec8f f46a 483f 0bcf 2adb 3f4d 7cbf
00000310: 6d6a 485f 2062 813f b4c4 88eb e1fa 663f
00000320: efb6 d4b7 a927 85bf 6a87 13a7 1c9b 75bf

arr_2 f8 [2, 51, 51]
19.64836239522212 -4.301563302393952 10.322739686341441 1.5248591678792631 -0.64337076734042 -1.2340208773034684 0.5300742336172676 0.08479292356131228
-0.32939638473451116 0.023506256311659954 0.13810930283766545 0.24774098607227032 -0.07461339275709167 -0.18201242348198585 0.09527271667805647 0.07153059252869765
-0.09430433681406443 0.023393701080514966 0.21483173351963242 -0.19235278530907143 -0.17956573514167073 0.1443080538731901 -0.2552678848410736 -0.0023355868603756606
-0.15612427054109088 -0.0955654696672688 0.29316898987291135 -0.054809347052551576 0.3298105194554142 0.1541731122207166 -0.0016718064871605774 0.09351737712456128
-0.0494833363498522 0.11043384529072006 0.026235043156172942 0.019504820804299904 -0.09079720275811626 -0.08426954459880966 0.18215174161747255 -0.16231694833368948
0.17920431668517478 0.19952348617596458 0.041923454807658224 0.0011594384385579426 0.21146429394840455 0.00901814194590877 0.05656332265958223 -0.09601505854977078
-0.027614884050338236 0.11224171334335399 0.042072135738402745 -4.301563302393952 2.1845565978215373 -4.346564491718029 0.5531938433788587 0.7346581687489837
-0.4619064586918156 -0.3195029771016137 0.12559259259347982 -0.01834414493348625 0.03223635207548893 -0.036612213342194486 0.15469402387268852 -0.03751398082466329
0.03736258575879621 0.07739516338069637 0.044057674288505405 -0.024582951424181907 0.03870916960344166 0.06727916905971525 -0.13780969242811034 -0.05970309501100508
0.0045476917222207576 -0.04158007638298338 -0.028231939765954017 0.021456103398188694 0.05907140556167368 -0.005691679805864855 0.014509139219712142 0.05373737751825294
0.01845886152347285 -0.006073943036581526 0.014154435249536326 0.0068389214385216465 0.015406781281078323 0.02346321615066187 -0.00047512355656330693 0.017905286036920622
-0.024399478468353684 0.012604031852466427 -0.05237734497154382 0.025598322200008704 -0.017327726419709075 0.012875201775665363 -0.006909384198800434 0.00816093161452857
-0.006839044970951704 0.01981227514514437 -0.002330671011013985 0.009300206330809713 0.0091663838635104 0.02232522428262658 10.322739686341441 -4.346564491718029
10.337844182684547 -0.9272189695164654 -0.2952301227462858 -0.39534497399548785 0.3680990562460691 0.11346799863222672 0.09864500743144865 0.07150546776141778
-0.01023725463619945 -0.19887249519904263 0.025281742997172486 -0.06729469575956643 -0.0950774698043405 -0.0918513470606515 0.003861120279952026 -0.06001238790227572
-0.04022258296803525 0.15985466027962317 0.016060083456993092 0.01331718333348595 -0.009703195977388446 0.037928542963950186 0.06738969425312988 -0.09164563364680019
-0.021584722938000445 -0.006769745945335647 -0.14122110435687985 -0.05163579275497176 -0.012805904285097475 -0.05478585179125457 0.005606632407988458 -0.05020724417295331
0.05641679749590006 0.01391065854925834 0.03653573231655376 0.009185735044206314 -0.056277413787783864 0.03479126938857621 -0.037363987512050154 -0.04736337145136158
0.006246264178255227 0.008521559917633436 -0.05034838933079805 0.0004263947974728525 -0.018359119339071688 0.029911472505634144 -0.014090253514339306 -0.03342983798122491
-0.0015751657875655288 1.5248591678792631 0.5531938433788587 -0.9272189695164654 1.2496747877637115 0.46376958883298347 -0.919251232980465 -0.06720031292617924
0.3298823899415031 0.04155772277614097 0.10076412647466673 0.015442615434970944 0.16004199141340913 -0.052211654352796046 -0.005705490615343315 0.024117663142989774
0.03570346839125122 -0.08677748449939571 0.03306985219436173 0.05787768104701842 -0.06183918309265014 -0.021301251243325183 0.04952690674602539 -0.05286732080969149
-0.017702941876440472 -0.011165114045618357 -0.02881227483423448 0.07654813853303337 -0.047887908106768726 0.1465092685480623 0.04460563528354279 -0.010753398112151267
0.07591926215830215 0.020633216382860396 0.012726079584127048 -0.07328903412928223 -0.005901664525857775 -0.0691096412077573 -0.0021232929746746953 0.04092200260830466
0.009602664963943876 0.021971751503257215 0.08053317046582935 -0.0033952910752995022 -0.006176186565551578 0.1016076917245054 0.011975892868363138 0.021090222643959954
-0.054405617960693285 -0.004544996444248207 0.039393441342093174 -0.012858351898033932 -0.64337076734042 0.7346581687489837 -0.2952301227462858 0.46376958883298347
1.4294701788718667 -1.475335391546795 -0.34825792307958336 0.5034381853496366 0.06292785887705464 0.18011053372934926 -0.13048539074564192 0.09609003385976907
-0.040403464826453316 0.03364241367244345 0.08680002464105288 -0.04468142481796765 -0.0941497716629024 0.06108639861033053 0.0232880251381592 0.015331108291624871
-0.0015640032018390743 -0.00026840022323106695 -0.033812074823024556 0.005462600934927433 0.048794602197377086 0.03821439120731164 -0.06769596780337656 0.00423438946064484
-0.06050549313412873 -0.036148332012688196 -0.008729696604221873 -0.019000393748461568 0.039809198918391624 -0.00960667633030328 0.008920603057024433 0.010547119982757196
0.034267818926040965 -0.009776647473378006 -0.029061188594574728 0.00010589804791658693 0.009916424492399418 -0.05843843618625821 0.004828812994851325 -0.005177348680662342
-0.032607569921522195 -0.0033561357993556243 -0.0026275375336594266 0.011109945861681389 0.013961192341256071 -0.010903304447173408 0.014889209615516565 -1.2340208773034684
00000000: 6b6f f313 fba5 3340 b9d2 a502 cd34 11c0
00000010: 63ea db22 3ea5 2440 5ec1 10ba d265 f83f
00000020: b3be 9d4a 7e96 e4bf 1198 e9ac 8cbe f3bf
00000030: 67d4 3a3d 5ef6 e03f cfc8 a031 fdb4 b53f
00000040: 34be f692 d414 d5bf c99c 7028 0612 983f
00000050: 6906 7bcd 90ad c13f 9f93 8704 fab5 cf3f
00000060: 683d bc01 dd19 b3bf 0311 29df 2e4c c7bf
00000070: df54 55f2 ca63 b83f 9802 9333 d44f b23f
00000080: a5c4 7c3a 5424 b8bf fef7 4ab4 84f4 973f
00000090: 320e ce32 9b7f cb3f 5936 191d 049f c8bf
000000a0: cc34 f58f 02fc c6bf 23a6 f7b1 af78 c23f
000000b0: e722 471c 4f56 d0bf 813e d5a5 1422 63bf
000000c0: dbfc 0a4e e1fb c3bf 6309 d986 fa76 b8bf
000000d0: 1127 eddd 47c3 d23f 6f2e 3682 f80f acbf
000000e0: 8404 bc94 9d1b d53f c88b 74cd f1bb c33f
000000f0: d18f 018c 1064 5bbf 8591 5b3c c1f0 b73f
00000100: 69a0 a33e e155 a9bf 9e29 e579 6445 bc3f
00000110: 56ab 75f1 5bdd 9a3f 560f e05d 12f9 933f
00000120: 7c15 6a48 7c3e b7bf 89c7 195a b092 b5bf
00000130: c207 948e bf50 c73f 0001 5740 cdc6 c4bf
00000140: 4c80 bbc3 2af0 c63f 4370 f44f fc89 c93f
00000150: ad1f abb6 fd76 a53f 52a2 388b 09ff 523f
00000160: 3edb 6311 4311 cb3f 7db0 d385 1a78 823f
00000170: 75b6 f329 def5 ac3f 0111 6560 7194 b8bf
00000180: af21 847f 1347 9cbf b184 0e78 dfbb bc3f
00000190: f17c 239e 7a8a a53f b9d2 a502 cd34 11c0
000001a0: 793c 3fcf f879 0140 0289 57cd e162 11c0
000001b0: d124 3593 c3b3 e13f 2c84 10d9 5182 e73f
000001c0: 191f 791b e08f ddbf 7e11 689d bc72 d4bf
000001d0: 5288 e706 6b13 c03f c3e7 3fba cec8 92bf
000001e0: 8229 d07b 4881 a03f 86b7 e005 d6be a2bf
000001f0: 55bd b586 03cd c33f 31c4 9151 0835 a3bf
00000200: 1a26 db57 3021 a33f edb2 965f 2bd0 b33f
00000210: 74f5 693c ba8e a63f 29c3 9ff1 452c 99bf
00000220: 2613 0133 b0d1 a33f a343 d026 3539 b13f
00000230: 8378 067d bfa3 c1bf 7aa1 1571 6791 aebf
00000240: 4bf5 81b3 99a0 723f 17cf 75d8 fb49 a5bf
00000250: 335a fd67 d5e8 9cbf 5c4a 94b9 96f8 953f
00000260: a143 0876 9b3e ae3f 2305 02aa 2850 77bf
00000270: 20c1 88b3 f7b6 8d3f f403 072e 7783 ab3f
00000280: fa42 423a e1e6 923f 2eba 32ab fde0 78bf
00000290: cebd eb23 00fd 8c3f 2f9e b1fe 2003 7c3f
000002a0: 892d e92d 978d 8f3f 8db2 1ac8 bd06 983f
000002b0: 4357 1223 4023 3fbf 77ff d067 c355 923f
000002c0: 0680 3e48 2dfc 98bf d52a d584 24d0 893f
000002d0: 957e 680f 34d1 aabf 46dd b952 7236 9a3f
000002e0: ec90 2509 5cbe 91bf 3d73 7254 505e 8a3f
000002f0: 3aa5 b5b2 034d 7cbf 7c45 1db3 adb6 803f
00000300: 291c c727 4203 7cbf 7b22 3b47 ab49 943f
00000310: 9a2b a478 c517 63bf ad87 4b90 fc0b 833f
00000320: 2fb4 5437 d3c5 823f f4d1 ad70 6cdc 963f
00000330: 63ea db22 3ea5 2440 0289 57cd e162 11c0
00000340: 478c a7e9 f9ac 2440 b2ba c91d c7ab edbf
00000350: ba51 7fe2 0ce5 d2bf b6b5 7c01 554d d9bf
00000360: 30fb 1058 ef8e d73f c39a 441f 3d0c bd3f
00000370: 7fed d498 cc40 b93f a23d 85ad 2e4e b23f
00000380: 5d0a e80e 45f7 84bf 4916 7a67 a774 c9bf
00000390: aa57 6f0d 75e3 993f a44a 7ba5 393a b1bf
000003a0: d764 653f ff56 b8bf 4313 b8e3 9183 b7bf
000003b0: 3891 812a 5ba1 6f3f d34f ca96 f1b9 aebf
000003c0: 4d14 d1ec 0d98 a4bf 61d0 0115 1e76 c43f
000003d0: 4a11 e0f4 0d72 903f f423 2317 0a46 8b3f
000003e0: c0d2 1deb 44df 83bf fded 3ab7 5e6b a33f
000003f0: f695 e774 7340 b13f 658e 5597 1676 b7bf
00000400: 8d9e 723c 4e1a 96bf 8cc6 ffd6 97ba 7bbf
00000410: f0e0 5b7c 8813 c2bf df0b 5fb2 0170 aabf
00000420: 9d35 cd60 fb39 8abf aa31 7423 e40c acbf
00000430: 2bfc 53ed faf6 763f 8180 7d8f c3b4 a9bf
00000440: 8840 6198 a9e2 ac3f 0873 47fc 307d 8c3f
00000450: 76b9 debe cfb4 a23f d531 d67c f8cf 823f
00000460: d4a8 71a7 64d0 acbf 4ca7 6b48 29d0 a13f
00000470: 1e27 d360 5f21 a3bf 4de4 d206 0340 a8bf
00000480: eb6f e2c5 ae95 793f a6d2 4169 c073 813f
00000490: d802 2a9b 43c7 a9bf 4e37 d8b5 b7f1 3b3f
000004a0: 6e25 94a4 bbcc 92bf 3163 bff0 1ca1 9e3f
000004b0: 299f 4ad0 59db 8cbf 920c ae39 b71d a1bf
000004c0: 7a9b c662 b9ce 59bf 5ec1 10ba d265 f83f
000004d0: d124 3593 c3b3 e13f b2ba c91d c7ab edbf
000004e0: 4b4b 81fd aafe f33f a2b0 3aa4 66ae dd3f
000004f0: 46ae ce8f 816a edbf 1985 4c2a 0a34 b1bf
00000500: 08ce 1407 cb1c d53f 5b84 70c8 0d47 a53f
00000510: 6a96 d183 adcb b93f 8230 10c2 60a0 8f3f
00000520: 2cbc 8d87 417c c43f 2da4 d467 7cbb aabf
00000530: 04ca 9bf9 a35e 77bf f901 d2f9 4cb2 983f
00000540: 293a 309a b947 a23f b83c f499 0c37 b6bf
00000550: 9c11 511b 88ee a03f 92d0 87b6 24a2 ad3f
00000560: 6213 fda9 62a9 afbf 27db d0c5 fecf 95bf
00000570: a810 7e39 975b a93f 623d cfeb 6c11 abbf
00000580: b7f4 9b51 b820 92bf f6d1 743d bcdd 86bf
00000590: aeac 8b08 f780 9dbf a3ad 91a7 a898 b33f
000005a0: 8685 628e c384 a8bf 8ac6 7cd2 d0c0 c23f
000005b0: 722e 85c1 8cd6 a63f 8551 b3a9 e005 86bf
000005c0: 493a 1bdc 716f b33f 397e 4db6 df20 953f
000005d0: ed00 f67c 2110 8a3f 309e bdf4 11c3 b2bf
000005e0: c09e 1602 582c 78bf 475b d360 2bb1 b1bf
000005f0: b38e 5a3c de64 61bf eb6b c78d baf3 a43f
00000600: aef2 cbdf 8faa 833f 95be 9148 c37f 963f
00000610: 9bd8 6465 d29d b43f 6b3a 1f04 71d0 6bbf
00000620: c034 0275 334c 79bf ac92 fa30 f602 ba3f
00000630: 9b1e ae21 d186 883f b6ac 15e2 ac98 953f
00000640: fb3d b89b 0ddb abbf 746c 6a31 c69d 72bf
00000650: 8a7c 7b8c 602b a43f 2a64 0fc7 7a55 8abf
00000660: b3be 9d4a 7e96 e4bf 2c84 10d9 5182 e73f
00000670: ba51 7fe2 0ce5 d2bf a2b0 3aa4 66ae dd3f
00000680: 7fca 4d1f 1cdf f63f 8b32 9548 f99a f7bf
00000690: cac7 8c99 db49 d6bf fc4b b465 2a1c e03f
000006a0: 675e e247 0a1c b03f 342e 04aa dc0d c73f
000006b0: 34dd edca beb3 c0bf a534 e640 5b99 b83f
000006c0: 833f 2650 c3af a4bf 8d9a f614 9439 a13f
000006d0: ba14 20c3 8638 b63f bee8 a9d4 7be0 a6bf
000006e0: 09d1 370e 331a b8bf 4509 8668 b746 af3f
000006f0: 2162 6de9 d0d8 973f 3fad ca85 ea65 8f3f
00000700: df42 93a6 e79f 59bf 7519 572e 0297 31bf
00000710: 974b 26f7 d04f a1bf e9a4 ddc5 f35f 763f
00000720: e170 5129 9bfb a83f e2a3 f130 d690 a33f
00000730: bc5c c9df 8554 b1bf a82d 0844 1458 713f
00000740: 4897 7a74 93fa aebf f150 99bf 0882 a2bf
00000750: 8e63 5a0b e0e0 81bf 0e06 0bd7 d674 93bf
00000760: 4f70 de0e df61 a43f 6897 4b45 aaac 83bf
00000770: acc7 1f13 f744 823f 9cb8 247b ba99 853f
00000780: b768 2f33 8d8b a13f f22a 4d69 c705 84bf
00000790: 9de7 625a 37c2 9dbf d819 2c9c b2c2 1b3f
000007a0: d7d8 1af7 0f4f 843f 5fac 7f88 a4eb adbf
000007b0: 3c1e 439e 60c7 733f 0d06 37f4 d734 75bf
000007c0: 1877 d47c f0b1 a0bf 8b2d f9af 537e 6bbf
000007d0: 2ca5 d578 5886 65bf 580b 17b1 cfc0 863f
000007e0: 55a0 2684 af97 8c3f 9eca 26c0 7854 86bf
000007f0: ce3c e5e2 3b7e 8e3f 1198 e9ac 8cbe f3bf

arr_3 f8 [2, 51, 51]
33.62801671342793 -192.00315858380858 -153.01354528686713 -201.0099258740625 -101.24011435407108 -340.53030370574527 87.68124369529953 -148.4940905274687
216.1289853772335 -201.9255490566586 -164.67828865165316 68.9377994855279 90.74547944965646 -99.16033053832162 -204.26832969857205 -266.0196844342616
130.3031737869504 -464.98514465802236 -120.3077332634759 -162.58521573532727 -135.58394201509338 -426.29566305670494 -164.25069828058568 145.0072088017798
-273.1555680088622 -17.68593435678918 -273.93701072253003 -211.66288221454224 116.18721733279024 36.4184641157647 -77.24863547120528 -28.162851163096818
208.63836198983748 -16.22697375298014 29.306370198678692 -0.5045385354860258 65.15495724704726 51.89756525772195 -14.014352061850678 -14.949770931225242
-0.3485538958747012 35.98411039083955 -5.003966387040026 -2.5898466682528385 8.759512653566542 6.489670062046298 2.493366680392543 -5.153620115221173
1.7528136224873885 -15.052986203410263 6.579404768507009 -192.00315858380418 1199.1105854270756 929.8412395904685 1206.8108796838044 668.5223040210366
2107.505203501752 -469.8993273586899 912.1948844519507 -1335.4826932285696 1231.0470846267112 1080.545017551191 -434.4501431758893 -563.6256635737014
616.1941167864462 1214.5081839417649 1634.3741361614907 -790.1028660064763 2862.0943187215757 705.3383072938694 1018.8284576110127 800.3086699799532
2632.1562138628888 1060.1554824428724 -901.2518237892156 1679.4228357563384 141.82573739160796 1749.745048622769 1405.990884375726 -685.0167397774721
-327.2368706466304 476.640533755546 151.34722650050784 -1230.5700613865872 56.704484965408156 -222.43206587197483 16.44348504003616 -364.2980694022937
-296.84245068312674 66.09530584846162 132.56582929288342 -9.948975336892113 -226.5764139777093 32.982252645345156 16.979790495119023 -50.899227021723306
-43.88382007509553 14.572898669339201 32.457973779388986 -18.227412021512738 87.57615034675501 -44.188086973640615 -153.01354528686505 929.841239590475
728.2696212549458 951.3969882324965 521.3483734468153 1650.7538316328228 -378.6664958331776 714.1117307034106 -1045.1270206308054 964.8358522981679
840.4863504302656 -337.2544644025785 -441.1403186900683 486.6828044121431 959.2929499191902 1280.8377794456999 -622.3718442995021 2243.9691904428223
559.7488660616283 792.3903063232527 628.3005455511152 2061.525356811094 830.2115126382525 -702.7110323986008 1314.3541240674147 110.08458289733784
1369.2038928400568 1094.3375127999645 -540.1557036240828 -246.8468595707487 370.41530692974374 118.90855905940617 -966.506499460892 50.55049689005334
-168.0957208202491 10.737514704802669 -290.6892560616394 -234.19878841134107 55.65302863767817 97.41081058985039 -5.917426887739406 -177.92845384700337
26.294106955004914 11.925998351653906 -39.89710484710811 -34.300238508611294 8.809872957732903 25.491363489016507 -12.47550174141385 68.95338318937037
-33.81146786569761 -201.00992587405995 1206.8108796838133 951.3969882324965 1255.3819933760008 707.5989504946 2176.838307669668 -477.31870944552554
928.2313854923971 -1375.8100353783382 1263.0008498545449 1097.0882689516027 -443.20437863872775 -576.2551536719668 638.6210725258799 1237.0581913704586
1684.1184692530535 -816.5459216037538 2943.4310876012755 721.9066575810931 1020.1511684464299 835.684493314202 2700.5385948293147 1058.727493412413
-938.1746620464563 1718.44343101688 149.21884393600325 1773.928747771612 1407.853131273773 -723.7249743494926 -291.17163138181456 491.24650676824655
164.51287455967295 -1285.2282590650489 72.00463740904026 -224.17066164061973 14.09158480039436 -380.7418416358707 -304.8263747353939 76.62677790696658
136.68123992961176 -9.370288766883517 -244.109699706204 38.11290510580341 12.77776540547169 -53.264715258900864 -46.97258074852813 20.78817265328561
34.63533164272905 -12.145454658432708 89.47801642145056 -43.83166902292074 -101.24011435406155 668.5223040209967 521.348373446777 707.598950494549
576.6307973123088 1315.764185708052 -56.69670869158731 500.9730441883847 -824.6651843744824 692.4896036728613 694.4150275224623 -260.62107776846875
-316.829617125262 383.1372132204215 553.4077303807159 995.1336592025375 -459.1230538307721 1705.409753872681 317.40996699426455 492.5164017940841
506.0529335188614 1542.7710517306648 507.30267926688595 -628.4125459836762 943.6432711892827 137.4959349851759 976.4613586079952 751.1796099903174
-487.5105554574654 -85.59941755186584 306.1679211371277 122.95991880012491 -776.3312287153713 27.180104201086365 -194.439821521189 23.223053982104545
-198.6034335582039 -147.8372338956869 29.5492444279654 174.28069252371975 -17.988032828837774 -192.83115933441513 43.11163152542432 -4.177484596224965
-24.60294830301337 -42.61426589901155 91.3651773417596 19.4625569405022 11.289225744140271 58.88560380644271 -27.30665634809118 -340.5303037057377
00000000: d7c1 06da 62d0 4040 1bc5 07e0 1900 68c0
00000010: 7f83 86f6 6e20 63c0 720f 1150 5120 69c0
00000020: 4582 9808 5e4f 59c0 fa11 bd1f 7c48 75c0
00000030: bbfa 277f 99eb 5540 ba17 f096 cf8f 62c0
00000040: 2a1c f1a5 2004 6b40 2826 0e19 9e3d 69c0
00000050: 2503 678a b495 64c0 1223 22e8 043c 5140
00000060: 5507 70ef b5af 5640 0da9 04db 42ca 58c0
00000070: 33fd 2928 9688 69c0 4d16 a0a0 50a0 70c0
00000080: 9b7e 8399 b349 6040 9080 0b27 c30f 7dc0
00000090: 4da1 dbe6 b113 5ec0 ba8a 5916 ba52 64c0
000000a0: c432 2aa7 aff2 60c0 ee72 2f09 bba4 7ac0
000000b0: ed88 66b8 0588 64c0 67fc f30d 3b20 6240
000000c0: df65 e134 7d12 71c0 c19c dd64 99af 31c0
000000d0: 4994 f4fe fd1e 71c0 e311 c354 3675 6ac0
000000e0: 0565 685e fb0b 5d40 25e1 6d3b 9035 4240
000000f0: f15c c0a4 e94f 53c0 cc9d 239d b029 3cc0
00000100: 91ab 1f76 6d14 6a40 9f19 aef3 1a3a 30c0
00000110: 44cb ff46 6e4e 3d40 b37e afff 2d25 e0bf
00000120: 2816 cdd1 ea49 5040 86f8 196b e3f2 4940
00000130: c38e 4827 5907 2cc0 969b 2060 48e6 2dc0
00000140: fc36 ebff b44e d6bf a227 4c54 f7fd 4140
00000150: 137b bac3 0f04 14c0 6e67 ae87 01b8 04c0
00000160: d6ee afd7 de84 2140 cd46 9911 6cf5 1940
00000170: c6c6 e93a 6af2 0340 e087 6b97 4e9d 14c0
00000180: e410 094c 860b fc3f 9492 f501 211b 2ec0
00000190: 4689 cf7b 4f51 1a40 80c4 07e0 1900 68c0
000001a0: d162 4e3d 71bc 9240 4d89 d2db ba0e 8d40
000001b0: b96b 3e57 3edb 9240 5f07 bbad 2de4 8440
000001c0: b38b 08aa 0277 a040 8a9f 15a5 635e 7dc0
000001d0: 045d 941f 8f81 8c40 d43a 2247 eedd 94c0
000001e0: 7acf f336 303c 9340 72b8 1419 2ee2 9040
000001f0: 65af 54c9 3327 7bc0 c55a e75b 019d 81c0
00000200: 210b 1a8d 8d41 8340 ee08 5f61 08fa 9240
00000210: 6ac7 8c1d 7f89 9940 7dad 69ab d2b0 88c0
00000220: 2321 8b4a 305c a640 5759 74da b40a 8640
00000230: 604b 62ae a0d6 8f40 3f69 f727 7802 8940
00000240: 9470 43fb 4f90 a440 f51c ca36 9f90 9040
00000250: 49d8 30bc 032a 8cc0 3644 dbfb b03d 9a40
00000260: 4c81 d270 6cba 6140 e4b2 06ee fa56 9b40
00000270: 71cf 64aa f6f7 9540 48e6 7648 2268 85c0
00000280: 8f0a e038 ca73 74c0 dec0 52a0 3fca 7d40
00000290: 8bff bf7a 1ceb 6240 6b10 2cbe 473a 93c0
000002a0: d279 3790 2c5a 4c40 30bb ce7b d3cd 6bc0
000002b0: 7638 4f3c 8871 3040 a3ec 6be4 c4c4 76c0
000002c0: 5b48 91ad 7a8d 72c0 a790 b37d 1986 5040
000002d0: b381 0846 1b92 6040 0d53 6918 e0e5 23c0
000002e0: 00e7 b9fb 7152 6cc0 5e15 6674 ba7d 4040
000002f0: c577 c58c d3fa 3040 94fd fcde 1973 49c0
00000300: b20a 2704 21f1 45c0 b377 71f9 5225 2d40
00000310: 5b73 82e2 9e3a 4040 4d1d 9bac 373a 32c0
00000320: 1439 b4a5 dfe4 5540 874b e43b 1318 46c0
00000330: 3683 86f6 6e20 63c0 8689 d2db ba0e 8d40
00000340: 6442 302f 28c2 8640 c19b 2a08 2dbb 8d40
00000350: ef86 0478 c94a 8040 a886 70ec 03cb 9940
00000360: b0e6 88f7 a9aa 77c0 dc28 11d3 e450 8640
00000370: e83c b211 8254 90c0 5767 54d3 af26 8e40
00000380: 17c3 b10b e443 8a40 22f1 4349 1214 75c0
00000390: c68d cfbe 3e92 7bc0 82bb 51c4 ec6a 7e40
000003a0: 4d92 20f6 57fa 8d40 2be2 dae2 5903 9440
000003b0: 860c 8189 f972 83c0 09cf ba39 f087 a140
000003c0: 395e 7dad fd7d 8140 57ee eb58 1fc3 8840
000003d0: fc07 6d84 67a2 8340 c264 91fb 0c1b a040
000003e0: e2bf 892d b1f1 8940 1813 c131 b0f5 85c0
000003f0: 17e1 7f9f 6a89 9440 7c77 62ce 6985 5b40
00000400: bbdf 48c9 d064 9540 5197 f49c 5919 9140
00000410: 6faa 8ae1 3ee1 80c0 7315 3e79 19db 6ec0
00000420: d310 e118 a526 7740 94a8 e5d4 25ba 5d40
00000430: c8df 964f 0d34 8ec0 16aa 9dae 7646 4940
00000440: 8510 1c25 1003 65c0 a3e4 0287 9b79 2540
00000450: fa34 5d31 072b 72c0 14b1 8379 5c46 6dc0
00000460: ef16 4171 96d3 4b40 8110 80b8 4a5a 5840
00000470: 4c3f 3df4 71ab 17c0 3297 d7e4 b53d 66c0
00000480: b245 e997 4a4b 3a40 c201 b974 1cda 2740
00000490: cab4 e554 d4f2 43c0 1fbe 2737 6e26 41c0
000004a0: 56c1 16ab a79e 2140 3cc6 63ff c97d 3940
000004b0: 8820 d9f6 74f3 28c0 b9b9 ec3a 043d 5140
000004c0: 8c76 d42d dee7 40c0 180f 1150 5120 69c0
000004d0: e06b 3e57 3edb 9240 c19b 2a08 2dbb 8d40
000004e0: d984 4529 879d 9340 d791 8ea6 ca1c 8640
000004f0: 6cb2 a936 ad01 a140 5657 136f 19d5 7dc0
00000500: ea14 a3e0 d901 8d40 430a ea79 3d7f 95c0
00000510: e8c5 c8de 00bc 9340 8b11 2d63 5a24 9140
00000520: 6315 8922 45b3 7bc0 6a24 028e 0a02 82c0
00000530: c958 dff4 f7f4 8340 1ec4 8496 3b54 9340
00000540: c9fd 0050 7950 9a40 6b52 250c 5e84 89c0
00000550: 619a 83b7 dcfe a640 b99b b0d5 408f 8640
00000560: d46c cd97 35e1 8f40 a076 a1d7 791d 8a40
00000570: 6793 b3c2 1319 a540 7a79 08f4 e88a 9040
00000580: 0f0b 37b5 6551 8dc0 20ce c712 c6d9 9a40
00000590: fb81 ffc4 00a7 6240 3ae5 a709 b7b7 9b40
000005a0: 33a0 3e9b 69ff 9540 140c 5abf cc9d 86c0
000005b0: c63d 8c00 bf32 72c0 c9bd 14b1 f1b3 7e40
000005c0: dd97 e877 6990 6440 9a8d bebc e914 94c0
000005d0: a10a b4fa 4b00 5240 97a4 660f 7605 6cc0
000005e0: 4902 f533 e42e 2c40 03ce 5595 decb 77c0
000005f0: 1fec b6d4 380d 73c0 b711 1521 1d28 5340
00000600: 2e4d aeb7 cc15 6140 87ae 3f7d 96bd 22c0
00000610: dd50 f5a8 8283 6ec0 107d acac 730e 4340
00000620: 14ec 6844 378e 2940 9edd 8930 e2a1 4ac0
00000630: e2d2 a586 7d7c 47c0 9776 d9ae c5c9 3440
00000640: 4fd1 198c 5251 4140 e609 7208 794a 28c0
00000650: 3145 30d2 975e 5640 3b45 6b21 74ea 45c0
00000660: a67f 9808 5e4f 59c0 0006 bbad 2de4 8440
00000670: 9e85 0478 c94a 8040 1690 8ea6 ca1c 8640
00000680: 2b16 76df 0b05 8240 9ec0 b286 0e8f 9440
00000690: 6d9a 1ac0 2d59 4cc0 cd6a c896 914f 7f40
000006a0: b271 2f4c 52c5 89c0 8797 54b5 eaa3 8540
000006b0: 531f f3f9 51b3 8540 89fd 3def ef49 70c0
000006c0: 3b53 9b1c 46cd 73c0 a064 7d06 32f2 7740
000006d0: 1556 2508 434b 8140 aa7d eabb 1119 8f40
000006e0: 052d 4b07 f8b1 7cc0 4cea 8496 a3a5 9a40
000006f0: e40c 8d39 8fd6 7340 fe12 872e 43c8 7e40
00000700: f345 d1d0 d8a0 7f40 ebba 958e 151b 9840
00000710: 3d07 37c6 d7b4 7f40 e29f e8e4 4ca3 83c0
00000720: 6d83 5d6b 257d 8d40 bac8 0bb3 de2f 6140
00000730: 8a28 c8dc b083 8e40 96d3 5cd7 6f79 8740
00000740: bb09 333c 2b78 7ec0 617a 6fdb 5c66 55c0
00000750: 5404 13ce af22 7340 8856 434f 6fbd 5e40
00000760: 20a0 3d5b a642 88c0 c489 154f 1b2e 3b40
00000770: ae32 9504 134e 68c0 b061 d610 1a39 3740
00000780: 6eb9 e453 4fd3 68c0 7e22 bd9e ca7a 62c0
00000790: 239f 6748 9b8c 3d40 7533 e36e fbc8 6540
000007a0: 8c3b 2fb8 effc 31c0 80e2 75db 981a 68c0
000007b0: 3573 1bf1 498e 4540 e951 a185 beb5 10c0
000007c0: 029f ead1 5a9a 38c0 bda6 d543 a04e 45c0
000007d0: 4106 c910 5fd7 5640 a9fe b321 6a76 3340
000007e0: ca7c 9065 1594 2640 39f1 2c77 5b71 4d40
000007f0: 9429 ca07 814e 3bc0 7511 bd1f 7c48 75c0

arr_4 f8 [51, 900]
0.0002950391169378611 1.1102230246251565e-16 0.0 0.0 0.0 0.0 0.0 0.0
0.0 0.0 0.0 0.0 0.0 0.0 0.0 0.0
0.0 0.0 0.0 0.0 0.0 0.0 0.0 -0.00021286747281602114
-0.0014588569142688734 -0.002257423201071469 -0.002334601280399654 -0.0023346012803996535 -0.0023346012803996535 -0.0023346012803996505 0.0019118368018337664 9.121943652382438e-05
0.0 0.0 0.0 0.0 0.0 0.0 0.0 0.0
0.0 0.0 0.0 0.0 0.0 0.0 0.0 0.0
0.0 0.0 0.0 0.0 0.0 -0.00021286747281602255 -0.0014588569142688728 -0.0019513783383311174
-0.0019513783383311174 -0.0019513783383311174 -0.0019513783383311174 -0.0019513783383311174 0.003848796205873806 0.0015696149320504455 0.0 0.0
0.0 0.0 0.0 0.0 -1.743179494344229e-05 -0.0017799471571570671 -0.0054663692876434165 -0.005980481738926453
-0.0059804062965136545 -0.0059804062965136545 -0.005963338575758694 -0.005963338575758694 -0.005958621406520854 -0.005928210962596567 -0.0058811488466533335 -0.0058811488466533335
-0.0058427595125710545 -0.005807280388409927 -0.005792392412519897 -0.0025140022739802434 -0.0013291610387993551 -0.0014684331395559366 -0.0014684331395559366 -0.0014684331395559366
-0.0014684331395559366 -0.0014684331395559366 0.004856898888619536 0.0035102038202176004 0.0007662234577002538 0.0 0.0 0.0
0.0 0.0 -0.0028702234211990404 -0.006888462763999348 -0.007891564008964222 -0.00826713205330602 -0.008430477402253929 -0.008828535725765092
-0.010383116672605207 -0.01205173647678383 -0.012091182889763224 -0.011067858027569254 -0.009696379636511463 -0.008614904319597697 -0.00844811080678201 -0.00838294666648842
-0.008829270999899046 -0.003776150873620336 -0.0010961669892691106 -0.001181854183343134 -0.001181854183343134 -0.001181854183343134 -0.001181854183343134 -0.001181854183343134
0.005524523075659755 0.00443849438448613 0.0030630906375492583 0.00023804033207814676 0.0 0.0 0.0 0.0
-0.0066129751187115095 -0.008820332893139975 -0.007306851940007317 -0.012690288608532437 -0.020914042838249994 -0.03352572346303178 -0.040887061759237196 -0.04399957464014982
-0.04458667109616099 -0.04263688858334109 -0.03563585015306452 -0.024121970647681075 -0.014888813899449987 -0.009833017099234813 -0.009708906516985673 -0.003783600243324199
-0.000822277531193249 -0.0008222775311932483 -0.0008222775311932483 -0.0008222775311932483 -0.0008372486288996763 -0.0008372486288996767 0.005541198370379636 0.0050335535765727675
0.004114761860517526 0.0024161086447975653 0.0 0.0 0.0 0.0 -0.007210472741931628 -0.015412915954832787
-0.023984794848599833 -0.03784031274704842 -0.04674257937213504 -0.05323076424513811 -0.05644971299625443 -0.057699312180938246 -0.05796424446001328 -0.056815125174465575
-0.05476533389450516 -0.049833759698123946 -0.041039121415641415 -0.03151545277826562 -0.018579949131115086 -0.004213013845988394 -0.0005083286441498058 -0.0005083286441498057
-0.0005083286441498057 -0.0005232997418562336 -0.0005813473345155949 -0.0005958760951521453 0.006159682228040112 0.005284159436480229 0.00468504518976035 0.0035241227301011893
0.0015728749031083645 0.0 0.0 -0.0007770897146960491 -0.02024815392175491 -0.046555567231305536 -0.04620049447267464 -0.04139712068491503
-0.044439754450557506 -0.046238444694246844 -0.04695075095956117 -0.047119364639950576 -0.04694766789006282 -0.0468469073724811 -0.04635301037269327 -0.04495754699572304
-0.04313044600736286 -0.05798433531263264 -0.05068780117640716 -0.01820337190493863 -0.001707311392380241 -0.00020916730873930643 -0.00021555680212678727 -0.0002942973170976881
-0.00030667356757534223 -0.00035531600358989135 0.00651837381730333 0.005350989088734577 0.004900573738043141 0.00407459085241836 0.003182717800039293 0.0008004979177301957
-0.0008609795095619842 -0.017508197107256002 -0.05085711317009107 -0.06717897026307643 -0.05489872883834442 -0.035544662909861906 -0.02395891756780272 -0.021878626411042393
-0.02101895776285495 -0.02074588038539438 -0.02041465752409866 -0.020322124653585995 -0.0210836473497538 -0.022328113702962143 -0.03708447379635904 -0.06712804643188121
-0.068992927684378 -0.04981228072262482 -0.0181742047308026 -0.0010264668628000156 -6.3894933874809345e-06 -0.00013007079248367648 -0.00016977738727513332 -0.00016977738727513332
0.006291855144509515 0.005567724029928686 0.004738901390849159 0.004170484957907791 0.0036254953357135393 0.0016992690671244254 -0.01454700477591211 -0.045130436603808326
-0.06758706931529573 -0.0753402617573999 -0.05679727451580514 -0.02736001461533312 -0.01820040562731798 -0.01755434409491916 -0.01359747250587925 -0.005607634290939743
00000000: 25d1 b85b ef55 333f 0000 0000 0000 a03c
00000010: 0000 0000 0000 0000 0000 0000 0000 0000
00000020: 0000 0000 0000 0000 0000 0000 0000 0000
00000030: 0000 0000 0000 0000 0000 0000 0000 0000
00000040: 0000 0000 0000 0000 0000 0000 0000 0000
00000050: 0000 0000 0000 0000 0000 0000 0000 0000
00000060: 0000 0000 0000 0000 0000 0000 0000 0000
00000070: 0000 0000 0000 0000 0000 0000 0000 0000
00000080: 0000 0000 0000 0000 0000 0000 0000 0000
00000090: 0000 0000 0000 0000 0000 0000 0000 0000
000000a0: 0000 0000 0000 0000 0000 0000 0000 0000
000000b0: 0000 0000 0000 0000 06b1 12ab a5e6 2bbf
000000c0: ae00 20af e3e6 57bf f675 4cda 287e 62bf
000000d0: 21a5 c084 0320 63bf 20a5 c084 0320 63bf
000000e0: 20a5 c084 0320 63bf 19a5 c084 0320 63bf
000000f0: 01af 8122 d352 5f3f 1869 8cfc a1e9 173f
00000100: 0000 0000 0000 0000 0000 0000 0000 0000
00000110: 0000 0000 0000 0000 0000 0000 0000 0000
00000120: 0000 0000 0000 0000 0000 0000 0000 0000
00000130: 0000 0000 0000 0000 0000 0000 0000 0000
00000140: 0000 0000 0000 0000 0000 0000 0000 0000
00000150: 0000 0000 0000 0000 0000 0000 0000 0000
00000160: 0000 0000 0000 0000 0000 0000 0000 0000
00000170: 0000 0000 0000 0000 0000 0000 0000 0000
00000180: 0000 0000 0000 0000 0000 0000 0000 0000
00000190: 0000 0000 0000 0000 0000 0000 0000 0000
000001a0: 0000 0000 0000 0000 3ab1 12ab a5e6 2bbf
000001b0: ab00 20af e3e6 57bf 83db 4b89 acf8 5fbf
000001c0: 83db 4b89 acf8 5fbf 83db 4b89 acf8 5fbf
000001d0: 83db 4b89 acf8 5fbf 83db 4b89 acf8 5fbf
000001e0: 818c a9ba 8287 6f3f 36e6 3a33 71b7 593f
000001f0: 0000 0000 0000 0000 0000 0000 0000 0000
00000200: 0000 0000 0000 0000 0000 0000 0000 0000
00000210: 0000 0000 0000 0000 0000 0000 0000 0000
00000220: 83af bbd3 4f47 f2be f7be 07b5 a329 5dbf
00000230: 6ab4 1755 e763 76bf 3b6d ba57 fd7e 78bf
00000240: 1077 5d17 e97e 78bf 1077 5d17 e97e 78bf
00000250: f596 8682 036d 78bf f596 8682 036d 78bf
00000260: 2ec1 1f41 1168 78bf 978b 5403 2e48 78bf
00000270: 603a 59df d416 78bf 603a 59df d416 78bf
00000280: 6cee 65d0 93ee 77bf f0fe 8cf5 5fc9 77bf
00000290: 4c50 a37f c3b9 77bf 02e4 8fb1 3e98 64bf
000002a0: a130 56cc e7c6 55bf 6a6a e313 0e0f 58bf
000002b0: 6a6a e313 0e0f 58bf 6a6a e313 0e0f 58bf
000002c0: 6a6a e313 0e0f 58bf 6a6a e313 0e0f 58bf
000002d0: 1e83 2fde d3e4 733f f42c 8653 6ec1 6c3f
000002e0: 2bab 9b58 8c1b 493f 0000 0000 0000 0000
000002f0: 0000 0000 0000 0000 0000 0000 0000 0000
00000300: 0000 0000 0000 0000 0000 0000 0000 0000
00000310: 238c 3d77 4b83 67bf 004f a8a4 1337 7cbf
00000320: d88e a9ca 7329 80bf d6c1 67ae 5bee 80bf
00000330: 17d9 db85 ff43 81bf 64b7 b501 b214 82bf
00000340: 99ac 5054 be43 85bf 89ed 38b0 94ae 88bf
00000350: 16e3 a618 43c3 88bf 3917 1fc2 beaa 86bf
00000360: f265 6d0b b2db 83bf 559a 7ce2 b0a4 81bf
00000370: 0f60 063d 3e4d 81bf ffa3 360e 142b 81bf
00000380: 3c65 89b1 1415 82bf a306 3990 29ef 6ebf
00000390: d2e0 ab57 a8f5 51bf 9af9 3a44 0e5d 53bf
000003a0: 9af9 3a44 0e5d 53bf 9af9 3a44 0e5d 53bf
000003b0: 9af9 3a44 0e5d 53bf 9af9 3a44 0e5d 53bf
000003c0: fbac f9de e1a0 763f c6f9 9843 192e 723f
000003d0: ca59 9d43 c417 693f 4fc9 ffe1 4e33 2f3f
000003e0: 0000 0000 0000 0000 0000 0000 0000 0000
000003f0: 0000 0000 0000 0000 0000 0000 0000 0000
00000400: 8477 d3fd 3416 7bbf 76e6 860a 6510 82bf
00000410: 579c e721 caed 7dbf 5e51 67b4 5dfd 89bf
00000420: 51d8 11a8 7d6a 95bf 8769 b29b 482a a1bf
00000430: e3c0 2b22 26ef a4bf e215 3cbc 1c87 a6bf
00000440: 301b 646c 10d4 a6bf 8925 2394 80d4 a5bf
00000450: 87f4 f1b5 dc3e a2bf a2fc 2f0c 6eb3 98bf
00000460: d0e7 31c6 067e 8ebf cfd4 e536 5523 84bf
00000470: d453 c35f 43e2 83bf 9083 cce9 c8fe 6ebf
00000480: 6128 678d c3f1 4abf 5b28 678d c3f1 4abf
00000490: 5b28 678d c3f1 4abf 5b28 678d c3f1 4abf
000004a0: 5448 68bd 596f 4bbf 5748 68bd 596f 4bbf
000004b0: babb 801c 5eb2 763f 8b9a e73f 109e 743f
000004c0: 0fb1 f2f9 a3da 703f e699 9d73 f2ca 633f
000004d0: 0000 0000 0000 0000 0000 0000 0000 0000
000004e0: 0000 0000 0000 0000 0000 0000 0000 0000
000004f0: 6640 d889 ba88 7dbf db2e b28f ce90 8fbf
00000500: 006e e755 788f 98bf c91e 7033 ce5f a3bf
00000510: 66cf 77b3 a4ee a7bf 57dd 250f 1041 abbf
00000520: ddff 5f0e fae6 acbf ed3c a3a5 c38a adbf
00000530: 0512 964c 7dad adbf 68bf 1541 df16 adbf
00000540: 4716 10ac 330a acbf bbc3 4780 cf83 a9bf
00000550: e76a ac68 1403 a5bf 30a8 001e cb22 a0bf
00000560: 2b97 8447 9f06 93bf 1254 fa4a aa41 71bf
00000570: 85b6 7c73 2ba8 40bf 84b6 7c73 2ba8 40bf
00000580: 84b6 7c73 2ba8 40bf 7cd6 7da3 c125 41bf
00000590: 1dca 09e5 b10c 43bf 81b1 aa2b 9286 43bf
000005a0: 1d2a 921b e53a 793f a6ea 76bf d7a4 753f
000005b0: a6c2 ec3d a030 733f 3997 eefb 9ede 6c3f
000005c0: f14c 4091 1dc5 593f 0000 0000 0000 0000
000005d0: 0000 0000 0000 0000 9314 9174 b376 49bf
000005e0: f7de 979b eebb 94bf 360e 699d 21d6 a7bf
000005f0: c569 a359 97a7 a7bf 5905 fbde 0032 a5bf
00000600: e4cb 03b8 cec0 a6bf 2c34 8fbf 90ac a7bf
00000610: 95b4 c9c7 ed09 a8bf fe15 4684 0720 a8bf
00000620: 172e 6c54 8609 a8bf c1c6 2a5e 51fc a7bf
00000630: 4565 3eef 94bb a7bf bb2a 1cf4 ac04 a7bf
00000640: 5685 209e 3115 a6bf 4834 b26f 1fb0 adbf
00000650: 22b7 b760 c0f3 a9bf 0bd8 089c e7a3 92bf
00000660: 3904 0aa6 fbf8 5bbf c20d 3880 7d6a 2bbf
00000670: ffeb c4d4 e240 2cbf 8f14 2c5a 7d49 33bf
00000680: 120b 7bf1 2019 34bf 5663 7b9d 3649 37bf
00000690: e00c e5a5 02b3 7a3f a2a8 3232 ebea 753f
000006a0: ba08 fcbe 9f12 743f 8f9e 4aa7 84b0 703f
000006b0: cf54 a29b a412 6a3f 8a04 4730 103b 4a3f
000006c0: e027 056b 6b36 4cbf d549 f337 abed 91bf
000006d0: 2945 ab8b f109 aabf 4a45 4218 a432 b1bf
000006e0: 3bc3 e7a9 af1b acbf ff8a 7df9 e832 a2bf
000006f0: 31e7 9abd af88 98bf 34d5 aac3 5967 96bf
00000700: 70f7 bf60 fe85 95bf c1c3 2077 683e 95bf
00000710: c13e b379 94e7 94bf aaec 16b3 52cf 94bf
00000720: 8aee 639f f396 95bf 98d8 8a58 2edd 96bf
00000730: 301a 4a74 bcfc a2bf 99bd 11bc 4d2f b1bf
00000740: 4548 0f40 85a9 b1bf f622 49c9 fe80 a9bf
00000750: 6c65 cc3b 429c 92bf 4039 cb66 50d1 50bf
00000760: 13c8 9b91 aacc dabe a828 8a99 730c 21bf
00000770: 4287 e2a6 c840 26bf 4287 e2a6 c840 26bf
00000780: 31ba 3a01 7dc5 793f 9678 f289 2ece 763f
00000790: ccf5 e127 1969 733f c9f3 0a08 1215 713f
000007a0: ef11 c2fc 36b3 6d3f 177f 8144 40d7 5b3f
000007b0: 4d6d 23ee d1ca 8dbf 5ffd 882a 561b a7bf
000007c0: 5c78 57dc 624d b1bf ddf2 51d8 7f49 b3bf
000007d0: fa39 1849 8814 adbf 64b8 f67f 4304 9cbf
000007e0: 49e7 c58b 20a3 92bf d960 2917 c4f9 91bf
000007f0: 2da1 c4dd fdd8 8bbf 3e42 33de 07f8 76bf

arr_5 f8 [900]
0.0011760448706350643 0.0 0.0 0.0 0.0 0.0 0.0 0.0
0.0 0.0 0.0 0.0 0.0 0.0 0.0 0.0
0.0 0.0 0.0 0.0 0.0 0.0 0.0 0.0012665098606839153
0.007960919124298896 0.011850913696399493 0.012212773656594898 0.012212773656594898 0.012212773656594898 0.012212773656594898 0.00741812918400579 0.0003618599601954044
0.0 0.0 0.0 0.0 0.0 0.0 0.0 0.0
0.0 0.0 0.0 0.0 0.0 0.0 0.0 0.0
0.0 0.0 0.0 0.0 0.0 0.0012665098606839153 0.007960919124298896 0.010403473855617875
0.010403473855617875 0.010403473855617875 0.010403473855617875 0.010403473855617875 0.015198118328206984 0.006151619323321874 0.0 0.0
0.0 0.0 0.0 0.0 0.0001809299800977022 0.01890718292020988 0.05834991858150895 0.0623303781436584
0.0623303781436584 0.0623303781436584 0.0621494481635607 0.0621494481635607 0.06205898317351185 0.06169712321331645 0.06124479826307219 0.06124479826307219
0.060882938302876784 0.06043061335263253 0.05871177854170436 0.018545322960014474 0.007327664193956938 0.008051384114347748 0.008051384114347748 0.008051384114347748
0.008051384114347748 0.008051384114347748 0.019540437850551838 0.014112538447620771 0.003075809661660937 0.0 0.0 0.0
0.0 0.0 0.026868102044508776 0.07798082142210964 0.11163379772028226 0.1195042518545323 0.12049936674506966 0.12158494662565587
0.12647005608829384 0.13171702551112718 0.13171702551112718 0.12791749592907545 0.1230323864664375 0.11932332187443459 0.11850913696399494 0.11769495205355528
0.09815451420300343 0.029129726795730053 0.006151619323321874 0.00660394427356613 0.00660394427356613 0.00660394427356613 0.00660394427356613 0.00660394427356613
0.022797177492310475 0.018364392979916773 0.012665098606839153 0.000995114890537362 0.0 0.0 0.0 0.0
0.059887823412339426 0.10792473312827935 0.1586755925456848 0.19694228333634883 0.22688619504251856 0.2710331101863579 0.2974488872806224 0.3087570110367288
0.3109281707979012 0.3027863216935046 0.2768228695494844 0.23611362402750136 0.20426994753030578 0.16880767143115613 0.11887099692419034 0.029220191785778903
0.004704179482540257 0.004704179482540257 0.004704179482540257 0.004704179482540257 0.00497557445268681 0.00497557445268681 0.023430432422652435 0.02153066763162656
0.017640673059525963 0.010493938845666727 0.0 0.0 0.0 0.0 0.06468246788492853 0.1557807128641216
0.2993486520716483 0.40094083589650803 0.44418310113985887 0.4745793377962728 0.49294373077618964 0.5010855798805862 0.5024425547313189 0.4945721005970689
0.48082142210964357 0.45585308485616066 0.4160484892346662 0.3027863216935046 0.15198118328206983 0.03057716663651167 0.0029853446716120863 0.0029853446716120863
0.0029853446716120863 0.0032567396417586395 0.004432784512393703 0.004794644472589108 0.027139497014655328 0.023520897412701285 0.020987877691333454 0.016102768228695497
0.007237199203908087 0.0 0.0 0.0025330197213678306 0.10828659308847476 0.27510403473855616 0.4707798082142211 0.59290754478017
0.6360593450334721 0.6679934865207164 0.6978469332368373 0.7167541161570472 0.7203727157590013 0.7069838972317714 0.6797539352270672 0.6447439840781618
0.6072914781979374 0.43432241722453413 0.26795730052469696 0.07734756649176769 0.006151619323321874 0.0012665098606839153 0.0013569748507327665 0.0029853446716120863
0.0033472046318074903 0.004704179482540257 0.029853446716120863 0.0247874072733852 0.02306857246245703 0.01972136783064954 0.015469513298353537 0.004070924552198299
0.002804414691514384 0.058983173511850916 0.22073457571919666 0.3676497195585309 0.5815089560340149 0.7443459381219468 0.8571557807128641 0.9096254749411977
0.9250949882395513 0.9283517278813099 0.929527772751945 0.9287135878415054 0.9154152343043243 0.8817622580061516 0.7612628912610819 0.5162836982087932
0.35561787588203364 0.19449972860502984 0.06133526325312104 0.0033472046318074903 9.04649900488511e-05 0.002894879681563235 0.004251854532296002 0.004251854532296002
0.029220191785778903 0.026234847114166817 0.02243531753211507 0.02080694771123575 0.018545322960014474 0.013388818527229961 0.051022254387552014 0.16220372715759002
0.3043242265243351 0.44734937579156864 0.6993848380676678 0.8961461914239189 0.939297991677221 0.9419214763886375 0.9329654423738013 0.9081780351004162
00000000: 3c2c 8390 b044 533f 0000 0000 0000 0000
00000010: 0000 0000 0000 0000 0000 0000 0000 0000
00000020: 0000 0000 0000 0000 0000 0000 0000 0000
00000030: 0000 0000 0000 0000 0000 0000 0000 0000
00000040: 0000 0000 0000 0000 0000 0000 0000 0000
00000050: 0000 0000 0000 0000 0000 0000 0000 0000
00000060: 0000 0000 0000 0000 0000 0000 0000 0000
00000070: 0000 0000 0000 0000 0000 0000 0000 0000
00000080: 0000 0000 0000 0000 0000 0000 0000 0000
00000090: 0000 0000 0000 0000 0000 0000 0000 0000
000000a0: 0000 0000 0000 0000 0000 0000 0000 0000
000000b0: 0000 0000 0000 0000 8ff4 a09b 20c0 543f
000000c0: 959b 477a d04d 803f 55b0 07b6 4a45 883f
000000d0: 7f94 96bb 0203 893f 7f94 96bb 0203 893f
000000e0: 7f94 96bb 0203 893f 7f94 96bb 0203 893f
000000f0: ad8a e2e3 7862 7e3f 3685 dcb1 00b7 373f
00000100: 0000 0000 0000 0000 0000 0000 0000 0000
00000110: 0000 0000 0000 0000 0000 0000 0000 0000
00000120: 0000 0000 0000 0000 0000 0000 0000 0000
00000130: 0000 0000 0000 0000 0000 0000 0000 0000
00000140: 0000 0000 0000 0000 0000 0000 0000 0000
00000150: 0000 0000 0000 0000 0000 0000 0000 0000
00000160: 0000 0000 0000 0000 0000 0000 0000 0000
00000170: 0000 0000 0000 0000 0000 0000 0000 0000
00000180: 0000 0000 0000 0000 0000 0000 0000 0000
00000190: 0000 0000 0000 0000 0000 0000 0000 0000
000001a0: 0000 0000 0000 0000 8ff4 a09b 20c0 543f
000001b0: 959b 477a d04d 803f ae1f cc9f 6a4e 853f
000001c0: ae1f cc9f 6a4e 853f ae1f cc9f 6a4e 853f
000001d0: ae1f cc9f 6a4e 853f ae1f cc9f 6a4e 853f
000001e0: d76e 71e9 3020 8f3f 894d fabc 7032 793f
000001f0: 0000 0000 0000 0000 0000 0000 0000 0000
00000200: 0000 0000 0000 0000 0000 0000 0000 0000
00000210: 0000 0000 0000 0000 0000 0000 0000 0000
00000220: 3685 dcb1 00b7 273f c108 3591 675c 933f
00000230: d04d 1060 0ae0 ad3f 4341 596f c4e9 af3f
00000240: 4341 596f c4e9 af3f 4341 596f c4e9 af3f
00000250: be64 a76e 0dd2 af3f be64 a76e 0dd2 af3f
00000260: 7b76 4eee 31c6 af3f 71bd eaec c396 af3f
00000270: 2416 2e6b 7a5b af3f 2416 2e6b 7a5b af3f
00000280: 195d ca69 0c2c af3f ccb5 0de8 c2f0 ae3f
00000290: db06 7461 780f ae3f ac96 6d8e 8bfd 923f
000002a0: 9818 1be1 9c03 7e3f a054 ab7b 3e7d 803f
000002b0: a054 ab7b 3e7d 803f a054 ab7b 3e7d 803f
000002c0: a054 ab7b 3e7d 803f a054 ab7b 3e7d 803f
000002d0: 6610 1296 6802 943f 5ac2 c4d8 08e7 8c3f
000002e0: 894d fabc 7032 693f 0000 0000 0000 0000
000002f0: 0000 0000 0000 0000 0000 0000 0000 0000
00000300: 0000 0000 0000 0000 0000 0000 0000 0000
00000310: 8cd6 58ce 4f83 9b3f 2322 b915 8df6 b33f
00000320: 883e 5656 0894 bc3f d9ba 72a5 d497 be3f
00000330: 47d9 5be7 0bd9 be3f d76e 71e9 3020 bf3f
00000340: ef47 69b9 2b30 c03f b4c6 727e 1adc c03f
00000350: b4c6 727e 1adc c03f f900 cdba 995f c03f
00000360: ece0 38ec 0c7f bf3f 96cc 1925 f98b be3f
00000370: 6b9c 8963 9d56 be3f 3f6c f9a1 4121 be3f
00000380: 25e8 747c a720 b93f 8e5f b7df 2ed4 9d3f
00000390: 894d fabc 7032 793f f287 dfca bc0c 7b3f
000003a0: f287 dfca bc0c 7b3f f287 dfca bc0c 7b3f
000003b0: f287 dfca bc0c 7b3f f287 dfca bc0c 7b3f
000003c0: 2113 15af 2458 973f a2dd 098d 1dce 923f
000003d0: b331 89c2 28f0 893f 959b 477a d04d 503f
000003e0: 0000 0000 0000 0000 0000 0000 0000 0000
000003f0: 0000 0000 0000 0000 0000 0000 0000 0000
00000400: 3d20 f8e5 9da9 ae3f 322a 378f f4a0 bb3f
00000410: 161d 5458 7b4f c43f 1a89 109d 6735 c93f
00000420: 228d cf59 9b0a cd3f 708c 1842 9b58 d13f
00000430: ef84 c60e 6709 d33f c00f 34c4 acc2 d33f
00000440: 87da 3e45 3fe6 d33f 1a62 56e1 d960 d33f
00000450: 85fe df44 77b7 d13f c448 aba2 f838 ce3f
00000460: df61 1984 8425 ca3f 5f2c 0e62 7d9b c53f
00000470: f078 3b64 546e be3f 133c 69e0 e5eb 9d3f
00000480: 3c2c 8390 b044 733f 3c2c 8390 b044 733f
00000490: 3c2c 8390 b044 733f 3c2c 8390 b044 733f
000004a0: 7a82 d998 4461 743f 7a82 d998 4461 743f
000004b0: c61a f2b3 25fe 973f d803 5ba5 220c 963f
000004c0: 78f9 7a87 6510 923f b9d8 2fa1 d87d 853f
000004d0: 0000 0000 0000 0000 0000 0000 0000 0000
000004e0: 0000 0000 0000 0000 0000 0000 0000 0000
000004f0: 03ba 30bc 078f b03f 02ab 8c55 9ff0 c33f
00000500: 5ef6 af3f 8728 d33f 239c 73c0 03a9 d93f
00000510: 2f38 35f5 7e6d dc3f 1c4f cc03 825f de3f
00000520: f7ec 9cdc 638c df3f b2b2 42a0 e408 e03f
00000530: 1012 9668 0214 e03f 0c05 65bd 11a7 df3f
00000540: 1b56 cb36 c7c5 de3f 213a cf6a b22c dd3f
00000550: d209 b4d7 89a0 da3f 1a62 56e1 d960 d33f
00000560: 46e5 e691 1e74 c33f e127 d5ea 9e4f 9f3f
00000570: 6069 6bb7 b874 683f 6069 6bb7 b874 683f
00000580: 6069 6bb7 b874 683f dd15 18c8 e0ad 6a3f
00000590: fdd5 2c88 1c28 723f 519e 4a93 8ca3 733f
000005a0: 1b6c 6ed0 74ca 9b3f 4bf7 a3b4 dc15 983f
000005b0: b9d8 2fa1 d87d 953f a054 ab7b 3e7d 903f
000005c0: 83a6 53de c0a4 7d3f 0000 0000 0000 0000
000005d0: 0000 0000 0000 0000 8ff4 a09b 20c0 643f
000005e0: b706 e98f abb8 bb3f a6c8 0cf4 4d9b d13f
000005f0: 3f6c f9a1 4121 de3f 533d 4c3e 19f9 e23f
00000600: 757c a720 995a e43f 1285 51e0 3360 e53f
00000610: 30b7 7b17 c354 e63f 765f 0554 a6ef e63f
00000620: 1db3 e314 4b0d e73f 3517 adb1 9c9f e63f
00000630: f014 2453 8bc0 e53f 0512 bd22 bea1 e43f
00000640: 09fd bf89 ee6e e33f e489 7940 f0cb db3f
00000650: d597 9e60 3626 d13f 3ae0 81d4 0ccd b33f
00000660: 894d fabc 7032 793f 8ff4 a09b 20c0 543f
00000670: e3bc bea6 903b 563f 6069 6bb7 b874 683f
00000680: 06fa a6cd 986b 6b3f 3c2c 8390 b044 733f
00000690: b843 46e5 e691 9e3f 9406 5ebe de61 993f
000006a0: b1a8 2ab1 499f 973f 70c9 7597 d631 943f
000006b0: f699 9ced 7aae 8f3f aa0d 0f7d acac 703f
000006c0: 0ca1 4dac 48f9 663f a3d1 7ee2 0a33 ae3f
000006d0: b5ba e7d3 0741 cc3f 2ccc 78b0 9287 d73f
000006e0: 07e9 8fab b89b e23f 4c9d a492 aed1 e73f
000006f0: b3a6 b7f5 d16d eb3f a163 4fe2 a61b ed3f
00000700: 09d6 05ce 609a ed3f 1fee cdae 0eb5 ed3f
00000710: b52f 1607 b1be ed3f b029 e48e 05b8 ed3f
00000720: ac1c b3e3 144b ed3f 1f79 9f7b 6537 ec3f
00000730: f6fd b3fe 435c e83f 6d78 e863 6585 e03f
00000740: 1853 b27a 71c2 d63f d840 b8fa 5de5 c83f
00000750: 6604 87eb 5567 af3f 06fa a6cd 986b 6b3f
00000760: 3685 dcb1 00b7 173f 3685 dcb1 00b7 673f
00000770: d4f1 9d82 646a 713f d4f1 9d82 646a 713f
00000780: 133c 69e0 e5eb 9d3f e7ce 7bc9 4edd 9a3f
00000790: 0ca1 4dac 48f9 963f ae1f cc9f 6a4e 953f
000007a0: ac96 6d8e 8bfd 923f 06fa a6cd 986b 8b3f
000007b0: bdea ecc3 961f aa3f 2030 b77b 17c3 c43f
000007c0: 685c 1352 0c7a d33f 924a ba46 5fa1 dc3f
000007d0: 5734 da4f 5c61 e63f d538 13c7 3aad ec3f
000007e0: f777 6ea9 ba0e ee3f cfa7 0f82 3824 ee3f
000007f0: 9365 e957 dada ed3f 5f75 f661 cb0f ed3f
